model/mnist_net.pth (torch, 250197 bytes, 10 tensors)

conv1.weight f4 [6, 1, 3, 3]
0	0xbf093873	-0.5360176
1	0xbe37e81e	-0.1795964
2	0xbf10e5ee	-0.56600845
3	0xbf14fdc7	-0.58199733
4	0xbf27d293	-0.65555686
5	0xbeace3e2	-0.3376761
6	0xbf19cd62	-0.60079014
7	0xbda1a1ec	-0.07892212
8	0xbec83391	-0.39101842
9	0x3e3c955d	0.18416353
10	0x3e63f73e	0.22262284
11	0xbe3ff0b0	-0.18744159
12	0xbc6d66ad	-0.014489812
13	0x3e810a11	0.25202993
14	0xbe894315	-0.26808992
15	0x3f149a6e	0.5804814
16	0xbc950686	-0.018191587
17	0xbf04c16e	-0.5185765
18	0x3ea99f3a	0.33129293
19	0x3f17dc36	0.5932039
20	0x3f2f0f3c	0.6838262
21	0x3b9d75df	0.004805311
22	0x3ea6c141	0.32569316
23	0x3ec2449f	0.3794298
24	0xbf24777d	-0.64244825
25	0xbead15f7	-0.3380582
26	0xbe986ac2	-0.2976895
27	0x3f0db0ad	0.5534771
28	0x3f356b49	0.7086683
29	0xbf17a6f9	-0.59239155
30	0x3f4fa597	0.81112045
31	0x3f1ecce4	0.6203139
32	0xbe562946	-0.20914182
33	0xbe228d1f	-0.15874146
34	0xbe5f6e47	-0.21819411
35	0xbed42727	-0.4143612
36	0x3ed8687a	0.4226721
37	0x3f13e244	0.5776713
38	0x3cd93805	0.02651597
39	0xbe56b12b	-0.20966022
40	0x3e9d2c30	0.30697775
41	0xbea3ba7d	-0.31978217
42	0xbbf278e8	-0.007399667
43	0x3f004c74	0.5011666
44	0x3df399ae	0.118945464
45	0xbe21b46a	-0.15791479
46	0xbe3474c1	-0.17622663
47	0x3edfdb52	0.43722016
48	0x3e97b519	0.29630354
49	0x3e58ca94	0.21171027
50	0xbdf1a2fc	-0.11798665
51	0xbe979797	-0.2960784
52	0x3e813b8b	0.2524074
53	0xbef0c471	-0.47024873

conv1.bias f4 [6]
0	0x3e722e54	0.23650485
1	0xbdf3a841	-0.11897326
2	0x3f7309f8	0.94937086
3	0x3f8c4e31	1.0961362
4	0x3ebb65a5	0.36600986
5	0xbc24759d	-0.010037807

conv2.weight f4 [16, 6, 5, 5]
0	0xbd0c7793	-0.034293722
1	0xbd585ac9	-0.052820954
2	0x3d5adbac	0.05343215
3	0x3c916e33	0.017752742
4	0xbe3af1a5	-0.18256243
5	0x3d1b0f28	0.03785625
6	0x3b372cef	0.0027950366
7	0x39e43f6f	0.0004353481
8	0xbde485b4	-0.11158314
9	0xbe255f49	-0.1614963
10	0xbb9cd90f	-0.0047866176
11	0xbd954d34	-0.07290116
12	0xbdb1a29c	-0.086735934
13	0xbd1fcf88	-0.039016277
14	0x3d3a0c44	0.045421854
15	0xbcdd0881	-0.026981594
16	0xbde4c979	-0.1117124
17	0x3ab86fbe	0.0014071388
18	0x3d3abeca	0.045592107
19	0xba48ff46	-0.0007667433
20	0x3d5072aa	0.050890602
21	0x3dd78d41	0.10524989
22	0x3e43c4aa	0.1911799
23	0x3d85fdbe	0.06542538
24	0x3dceae6e	0.100918636
25	0xbd103d02	-0.03521443
26	0x3c63aac8	0.013895698
27	0x3bd19aca	0.006396626
28	0x3d8ba141	0.06817866
29	0x3d93d3c5	0.07218126
30	0xbd0a9da6	-0.03384175
31	0xbcb4e4c3	-0.022081738
32	0xbd829ac9	-0.06377179
33	0x3d3218aa	0.043480553
34	0x3e24b5e7	0.16085015
35	0x3b1e72b2	0.002417725
36	0xbc6e4716	-0.014543315
37	0x3df0a725	0.1175063
38	0x3defea2f	0.11714589
39	0xbc0b3b0e	-0.008497966
40	0x3d2de484	0.042454258
41	0x3d02b866	0.031914137
42	0x3d08b88b	0.03337912
43	0x3d02b2f4	0.031908944
44	0x3d043357	0.032275524
45	0x3d331afa	0.0437269
46	0xbd952101	-0.072816856
47	0xbc5d3b18	-0.013502859
48	0xbd084830	-0.03327197
49	0x3d2829c7	0.041055467
50	0x3d62f37d	0.05540799
51	0xbba70d21	-0.0050980006
52	0xbd1d6451	-0.038425747
53	0xbd84a242	-0.06476261
54	0xbc8ef6bb	-0.017451635
55	0xbdaa0be1	-0.08303047
56	0xbe01a828	-0.12661803
57	0x3d237282	0.039904125
58	0x3d5a7f09	0.053343806
59	0x3e00542b	0.12532108
60	0xbcf92931	-0.03041515
61	0xbda083e7	-0.078376584
62	0x3e561525	0.20906503
63	0x3decf971	0.11571015
64	0x3d35b96d	0.04436629
65	0x3e02a486	0.12758073
66	0x3e2891c4	0.16461855
67	0x3e2833a2	0.16425946
68	0x3cf71e86	0.030165922
69	0x3c6eb16b	0.014568667
70	0x3e0e422a	0.13892427
71	0xbd4459df	-0.04793727
72	0xbdddd901	-0.10832406
73	0xbbff389c	-0.007788731
74	0x3c5c275d	0.013437119
75	0x3d3cab94	0.046062067
76	0x3cfd70f5	0.030937651
77	0x3d31e05c	0.043426856
78	0x3c510b4a	0.012759039
79	0x3e20d00b	0.15704362
80	0x3c16d63d	0.009206352
81	0x3d22a243	0.039705526
82	0xbdcb18f8	-0.09916872
83	0x3e8ec76d	0.27886525
84	0x3ea98914	0.33112395
85	0xbd738cfc	-0.059460625
86	0xbdd56351	-0.10419334
87	0x3e88b66b	0.26701674
88	0x3eb7a784	0.35869992
89	0x3df25831	0.118332274
90	0x3e2000ba	0.15625277
91	0x3e947cc6	0.29001445
92	0x3e9a4a09	0.3013461
93	0x3d9760fc	0.07391545
94	0xbd775122	-0.06038011
95	0xbc688f01	-0.014194251
96	0xbc4209e0	-0.011843175
97	0xbde05652	-0.10953964
98	0xbdf4a0a4	-0.11944702
99	0xbdf25302	-0.11832239
100	0x3d8892b4	0.066686064
101	0x3c14ccbb	0.009082015
102	0xbcc510ec	-0.02405592
103	0xbc9b32c4	-0.018945105
104	0x3c705d2b	0.0146706505
105	0xbdcd660d	-0.1002923
106	0xbde57f2f	-0.11205899
107	0x3d1718e2	0.036888964
108	0x3cceee22	0.025260035
109	0x3d5af366	0.05345478
110	0xbd7174cd	-0.05894928
111	0xbdad684a	-0.08467157
112	0x3d168986	0.036752246
113	0x3ddf216c	0.108950466
114	0xbd467d34	-0.048459247
115	0xbd8c6d6e	-0.068568096
116	0x3daca61f	0.084301226
117	0x3d555d3f	0.05209088
118	0xbcb21432	-0.021738146
119	0xbd04dbcd	-0.03243618
120	0x3d8e170c	0.069379896
121	0x3dd8f6de	0.10593961
122	0xbcbb968c	-0.022898935
123	0x3cfb2349	0.030656474
124	0x3d3816b9	0.044943545
125	0x3d5ba8ba	0.053627707
126	0x3de46ea9	0.11153919
127	0xbd388b01	-0.04505444
128	0x3d826631	0.06367148
129	0xbad0d148	-0.0015931511
130	0x3dd73b71	0.105093844
131	0xbbe27da1	-0.006911949
132	0xbce9bf42	-0.028533582
133	0x3daf1372	0.08548631
134	0x3cf0e382	0.02940536
135	0x3cb2382f	0.021755306
136	0x3b786fe0	0.003790848
137	0x3da6601b	0.081237994
138	0x3d301ecd	0.042998124
139	0xbc63a7ab	-0.013894956
140	0x3e0735c1	0.13204099
141	0x3e3ac70d	0.18239994
142	0x3dfc233c	0.12311408
143	0x3dae9bd8	0.085258186
144	0xbd3d2c6c	-0.046184942
145	0x3d422627	0.047399666
146	0xbd00a063	-0.031402957
147	0x3d43032f	0.047610458
148	0xbd7538ba	-0.05986855
149	0x3d620406	0.05517962
150	0xbd030be2	-0.031993754
151	0xbd5519f9	-0.052026723
152	0xbccdd125	-0.025124142
153	0x3d8eae9a	0.06966896
154	0xbdbc0091	-0.091797955
155	0x3d0a3e5a	0.03375087
156	0xbda74d9e	-0.08169101
157	0x3da6c035	0.08142129
158	0xbcdbf094	-0.026848115
159	0xbde96b8b	-0.11397465
160	0x3cc7bafe	0.024381157
161	0xbd9c0fac	-0.07620177
162	0x3ca3f79c	0.02001553
163	0xbc329ece	-0.01090212
164	0xbe04d405	-0.12971504
165	0x3e125467	0.1429001
166	0x3c78a1df	0.015175312
167	0x3d9f7cfe	0.07787512
168	0x3c154a1b	0.009111906
169	0xbda99ecd	-0.08282242
170	0xbc624bd3	-0.013812023
171	0xbd64a296	-0.055819117
172	0x3dc183dc	0.09448978
173	0x3d23a05e	0.03994786
174	0x3d2891fb	0.041154843
175	0x3dae1b91	0.085013516
176	0xbca36e9d	-0.019950205
177	0x3dfdf2ae	0.12399803
178	0xbca9c3c3	-0.02072323
179	0x3e26cacf	0.16288303
180	0xbc688cce	-0.014193727
181	0x3dc68d85	0.096949615
182	0x3d944d87	0.0724135
183	0x3d310819	0.043220613
184	0x3e190ab5	0.1494549
185	0xbcf83d7d	-0.030302757
186	0x3dab0d0d	0.083520986
187	0x3d45d348	0.048297197
188	0x3b81b2ef	0.003958098
189	0xbd7b9532	-0.06142158
190	0x3c86d5f4	0.016459443
191	0x3da1781f	0.078842394
192	0x3dc110c2	0.094270244
193	0xbbbabf08	-0.005699042
194	0xbdc7c19d	-0.09753726
195	0xbc6bd20b	-0.01439334
196	0x3d811f9c	0.06304857
197	0xbc24496e	-0.010027273
198	0x3da6ea1f	0.08150124
199	0xb9db8e74	-0.0004187707
200	0xbd826efc	-0.06368825
201	0x3d575594	0.052571848
202	0xbdcbbaaa	-0.09947713
203	0x3dad323e	0.084568486
204	0xbdcb98b9	-0.09941239
205	0xbd7eb203	-0.062181484
206	0xbcd8cc9e	-0.026464757
207	0xbd61e4cc	-0.05514984
208	0x3cd739cc	0.026272677
209	0xbddab4d7	-0.10679024
210	0xbd860a31	-0.065449126
211	0x3cb97981	0.022640945
212	0xbc81b1b7	-0.015831811
213	0x3de3152e	0.11088024
214	0xbbd081f4	-0.006363148
215	0xbd03c11d	-0.03216659
216	0xbdd6080d	-0.10450754
217	0xbdf52056	-0.11969058
218	0xbc83394f	-0.016018538
219	0x3dd18e20	0.10232186
220	0x3d459287	0.048235442
221	0x3c7e994c	0.0155394785
222	0xbdc85851	-0.0978247
223	0xbd7cafaf	-0.061690982
224	0x3ccd7ea9	0.02508481
225	0xbba07168	-0.0048963316
226	0x3da70eab	0.081570946
227	0x3d740bca	0.059581555
228	0xbd9e0673	-0.07716074
229	0x3e4b6b80	0.19865227
230	0xbdc66425	-0.0968707
231	0x3e06a72e	0.13149711
232	0x3c13a736	0.009012034
233	0x3d0acd77	0.033887353
234	0x3e4a114b	0.19733159
235	0xbde2386c	-0.11045918
236	0x3d4c2fe6	0.049850367
237	0x3caf5e9d	0.02140742
238	0x3dbc1da9	0.09185345
239	0x3e151025	0.1455694
240	0x3d03e40a	0.032199897
241	0x3e007be3	0.12547259
242	0x3d258180	0.040406704
243	0xbd7a34e8	-0.06108561
244	0x3e0bc256	0.13648352
245	0xbc793945	-0.015211408
246	0x3d788d0b	0.060681384
247	0x3b8ca787	0.0042924318
248	0xbddefde9	-0.10888273
249	0x3c7dac23	0.015482935
250	0x3d563128	0.052292973
251	0x3dbc76e7	0.09202366
252	0xbd8373de	-0.06418584
253	0x3d9759ca	0.07390173
254	0x3dcea24b	0.10089549
255	0xb944dbba	-0.00018773871

conv2.bias f4 [16]
0	0x3cfb7065	0.030693242
1	0x3de5f2e7	0.112279706
2	0x3c76b5b9	0.0150579745
3	0xbc237918	-0.0099776015
4	0x3ca53861	0.020168485
5	0xbd4021ac	-0.046907112
6	0x3daa1a66	0.08305816
7	0x3da2fad1	0.07957996
8	0x3d7deb9b	0.06199227
9	0x3d2e2727	0.042517807
10	0xbd6291e6	-0.05531492
11	0x3db67567	0.089091115
12	0x3c62f9d3	0.013853508
13	0x3d0a81a6	0.03381505
14	0x3d905a2a	0.070484474
15	0x3c9b159f	0.018931208

fc1.weight f4 [120, 400]
0	0x3d0587ca	0.0326002
1	0x3d1f5f18	0.038909048
2	0x3d164cbf	0.036694285
3	0x3d103e51	0.03521568
4	0x3da5d59f	0.080973856
5	0x3c49fc0b	0.012328158
6	0xbb8b69ad	-0.004254541
7	0x3c43fa60	0.0119615495
8	0x3d250940	0.040292025
9	0xbc00f23c	-0.007870253
10	0x3c18d4eb	0.009328107
11	0x3bc037ea	0.0058660405
12	0xbc4e2584	-0.012582187
13	0xbc389c34	-0.0112677105
14	0xbcc6cf79	-0.024268853
15	0xbc8b0630	-0.016970724
16	0x3d1a3635	0.037649352
17	0x3d010de6	0.031507395
18	0xbbe5e6a9	-0.007016022
19	0xbd8a0b44	-0.0674043
20	0xbcdbe34f	-0.026841788
21	0x3bb1862b	0.0054176054
22	0xbcf705c5	-0.030154118
23	0x3cebfec4	0.028808005
24	0xbc929ded	-0.01789757
25	0xbcaff5cc	-0.02147951
26	0x3a518ba1	0.00079935236
27	0xbb6f988e	-0.0036559436
28	0x3d3bbcc3	0.045834314
29	0x3bf25f72	0.007396632
30	0x3b9a0a3f	0.0047009285
31	0x3cc20c36	0.023687463
32	0x3c004f6f	0.007831438
33	0x3ca75b1e	0.02042919
34	0x3cf19e91	0.029494556
35	0x3c86de2c	0.016463362
36	0x3cb219a3	0.02174074
37	0x3c6ffefe	0.014648197
38	0x3cefd217	0.029274983
39	0xbd002c0f	-0.031292018
40	0xbd78dae1	-0.060755614
41	0xbbb03528	-0.0053774305
42	0x3d0093b4	0.03139086
43	0xbc2fafd5	-0.010723074
44	0xbc85dd8b	-0.016340991
45	0x3c49cd93	0.012317079
46	0xbc9cc6fa	-0.019137848
47	0x3d10655a	0.035252906
48	0x3d8ebc5b	0.0696952
49	0x3ce24078	0.027618632
50	0xbd0cdf14	-0.03439243
51	0x3d2d56e6	0.0423192
52	0x3d247d92	0.040158816
53	0xbc53cce7	-0.0129272705
54	0xbcf34e62	-0.029700462
55	0xbda8d886	-0.082444236
56	0xbd1e2e5c	-0.03861843
57	0x3d3f58ec	0.046715662
58	0x3c477742	0.012174429
59	0x3d4dae69	0.05021516
60	0xbd311784	-0.043235317
61	0xbc5b4199	-0.013382339
62	0x3cdf6d29	0.027273731
63	0xbd01170c	-0.03151612
64	0x3c638da6	0.013888752
65	0xbd41cb5e	-0.047313087
66	0x3d06e367	0.03293171
67	0xbd0b5b47	-0.034022596
68	0x3d1df58c	0.03856425
69	0x3c55a92f	0.013040825
70	0xbd27c965	-0.04096355
71	0x3ccb8251	0.024842413
72	0xbcde52de	-0.027139124
73	0xbc75360b	-0.014966498
74	0xbc8595e4	-0.016306825
75	0x3d3267f3	0.043556165
76	0x3d2bf4ab	0.04198138
77	0xbd33459a	-0.04376755
78	0xbd0587f4	-0.032600358
79	0xbd38ac65	-0.045086283
80	0x3c1d07d3	0.009584385
81	0xbc3271b2	-0.010891365
82	0x3d3eb88a	0.04656271
83	0x3ce695da	0.028147627
84	0xbd45336d	-0.048144747
85	0xbd44043b	-0.047855597
86	0xbcdda241	-0.027054908
87	0x3ca3bef2	0.01998851
88	0x3d136745	0.035987157
89	0xbcb3c838	-0.021946058
90	0x3d2f27f7	0.042762723
91	0xbc5511b2	-0.013004707
92	0xbbe9d076	-0.007135446
93	0xbc892b01	-0.016744139
94	0xbd0fe21c	-0.035127744
95	0xbd0c4603	-0.034246456
96	0xbd2f5e89	-0.042814765
97	0x3d172fce	0.036910824
98	0x3d2f290f	0.042763766
99	0xbd2b840b	-0.041873973
100	0x3d34f804	0.04418184
101	0xbcb9e7c8	-0.02269353
102	0x3c837f84	0.016052015
103	0x3cb28a3d	0.021794433
104	0x3c09f811	0.00842096
105	0xbcfc6717	-0.030810876
106	0xbc37cd07	-0.011218316
107	0x3cb34c86	0.021887075
108	0x3c44b277	0.01200544
109	0x3cfb3546	0.030665051
110	0xba74ca3e	-0.0009337998
111	0xbd377b5b	-0.044795375
112	0x3ca9ce6e	0.020728316
113	0xbd8c98ff	-0.06865119
114	0xbd804fe4	-0.06265238
115	0x3c2836b8	0.010266952
116	0x3d5237cd	0.051322747
117	0xbc25498e	-0.010088338
118	0xbd8db69e	-0.06919597
119	0x3c857799	0.01629238
120	0xbc71f54f	-0.014767959
121	0xbcb5c0d8	-0.022186682
122	0x3cdca58f	0.026934413
123	0x3d2928b3	0.04129858
124	0xbcd9707d	-0.026542896
125	0x3d09e508	0.033665687
126	0x3ca411f6	0.020028096
127	0x3c964706	0.018344413
128	0x3cb0b186	0.021569025
129	0xbbbb88b4	-0.0057230834
130	0x3d4d3cd8	0.050106853
131	0xbd03e790	-0.032203257
132	0xbd004a00	-0.031320572
133	0x3d1a0d04	0.03761007
134	0xbc9c9729	-0.019115048
135	0xbd3f9abd	-0.04677843
136	0xbc004c02	-0.007830622
137	0xbcfa9134	-0.030586816
138	0xbcba8ee0	-0.022773206
139	0x3cd45b1b	0.025922349
140	0xbbb7471a	-0.0055931928
141	0xbd1de2dd	-0.03854643
142	0x3d3f37a1	0.04668391
143	0xbbe089a6	-0.0068523465
144	0x3c63ad83	0.013896349
145	0x3ca26554	0.019823708
146	0x3af0e474	0.0018378631
147	0x3ca2cb25	0.019872257
148	0x3d166ed9	0.036726806
149	0xba8bba90	-0.0010660458
150	0xbce80708	-0.028323665
151	0xbcbdae26	-0.02315433
152	0xbca7eacb	-0.0204977
153	0xbc9cabd9	-0.019124912
154	0xbb978f6e	-0.0046252524
155	0xbd10dccf	-0.03536683
156	0xba754715	-0.00093566003
157	0x3d072903	0.032998096
158	0x3d712c47	0.058880117
159	0x3d69dd25	0.057095665
160	0x3bcd2edd	0.00626169
161	0x3cd6c7f5	0.026218394
162	0x3d061b6f	0.032741006
163	0x3c61e1ac	0.0137867145
164	0x3cc5a28e	0.024125364
165	0xbb98f684	-0.004668059
166	0xbd4f71b1	-0.050645534
167	0xbce51b63	-0.02796716
168	0xbc67d8a2	-0.01415077
169	0x3ca6d12c	0.020363413
170	0xbc47f899	-0.012205266
171	0xbbc284ab	-0.0059362254
172	0xbbbadb74	-0.0057024304
173	0x3d6b997e	0.05751943
174	0x3cf45d9e	0.029829796
175	0x3c15fbab	0.009154241
176	0x3d224503	0.039616596
177	0xbd16df78	-0.03683421
178	0xb9a47d91	-0.00031374072
179	0x3c216bd7	0.009852371
180	0x3d05c356	0.03265699
181	0xbce4531d	-0.027871663
182	0xbcb4e47f	-0.022081612
183	0x3c652b7e	0.01398742
184	0x3c424e7e	0.011859534
185	0x3d451542	0.048115976
186	0xbaa6025c	-0.0012665498
187	0x3bfeec31	0.007779621
188	0x3c28ed26	0.010310447
189	0xbbfca8cf	-0.0077105532
190	0x3cc3f7d8	0.023921892
191	0x3ce973c7	0.02849759
192	0x3ced81e2	0.028992597
193	0xbd1ab714	-0.037772253
194	0xbd28cc92	-0.04121072
195	0x3d6a894c	0.057259843
196	0xbd342d8f	-0.04398876
197	0x3cd468c3	0.02592886
198	0xbbcc4ae7	-0.006234515
199	0x3d05a7ad	0.03263061
200	0xbcef22e8	-0.02919145
201	0x3d07d5ce	0.033162884
202	0xbc9e524d	-0.019326353
203	0xbd2a4b48	-0.0415757
204	0x3c402bc2	0.011729183
205	0xbd25a29c	-0.04043828
206	0x3d269d6f	0.040677484
207	0x3c80c8d2	0.015720759
208	0x3c88f2db	0.016717365
209	0xbd195a2a	-0.037439503
210	0x3d25945e	0.040424697
211	0x3d0d8302	0.034548767
212	0xbc690fc5	-0.014224951
213	0x3cfb1680	0.030650377
214	0xbcc76016	-0.02433781
215	0x3cceebad	0.025258863
216	0x3d1c5379	0.038165543
217	0xbd091635	-0.033468444
218	0x3ab7851e	0.0014001464
219	0xbcdc66ec	-0.026904546
220	0x3cb24244	0.021760114
221	0x3d46805f	0.048462268
222	0x3cda380e	0.026638057
223	0x3d30cb5f	0.0431627
224	0x3d388230	0.04504603
225	0xbd4527ab	-0.048133533
226	0xbd6f727b	-0.058458786
227	0xbd8c0e75	-0.06838695
228	0x3ce66d8a	0.028128404
229	0x3a499344	0.0007689486
230	0x3d950230	0.07275808
231	0x3dc117e7	0.09428387
232	0xbbbd685e	-0.005780264
233	0xbb7cc909	-0.0038571975
234	0xbc9a409e	-0.01882964
235	0x3d377a91	0.044794623
236	0x3d49dc79	0.049282525
237	0x3c754b17	0.014971516
238	0xbc474c04	-0.01216412
239	0xbc92e42c	-0.017931066
240	0x3d2e65a2	0.042577393
241	0xbcb3bd3a	-0.021940816
242	0xbcd3e37a	-0.025865305
243	0x3cb944bb	0.022615781
244	0x3cf9efc0	0.03050983
245	0x3c93f0c4	0.018059142
246	0x3d1dafc8	0.038497716
247	0x3d395c29	0.045253906
248	0x3d00a936	0.031411372
249	0x3cb72f00	0.022361279
250	0xbca08389	-0.01959397
251	0xbd24f677	-0.04027411
252	0xbb9c0390	-0.004761167
253	0xbd09bf0c	-0.033629462
254	0xbd1c48d3	-0.038155388
255	0x3d34622d	0.04403894

fc1.bias f4 [120]
0	0xbd01766d	-0.03160708
1	0x3d07b8a4	0.03313507
2	0xbd2c37fd	-0.042045582
3	0x3d3bfade	0.045893542
4	0x3d1ea396	0.038730226
5	0xbceaaf2a	-0.028647978
6	0xbd1d80fc	-0.038453087
7	0xbb86a6fa	-0.0041092606
8	0xbd03260a	-0.0320187
9	0x3c9103ef	0.017702071
10	0xba8dabcb	-0.0010808645
11	0x3b58585a	0.0033011646
12	0x3c545adb	0.012961115
13	0x3cc5424c	0.024079464
14	0xbd4e21d1	-0.05032522
15	0xbd57ed49	-0.052716527
16	0x3d309234	0.04310818
17	0xbbcaf516	-0.0061937673
18	0x3d2d6a7d	0.042337883
19	0xbd1f4c4b	-0.038891118
20	0xbbc3ddfb	-0.00597739
21	0x3caed64b	0.021342417
22	0xbce7ba9f	-0.02828723
23	0x3cb77b74	0.022397734
24	0x3d3dabac	0.046306297
25	0x3d31e2cb	0.043429177
26	0xbc21ddbe	-0.009879528
27	0xbc730204	-0.0148320235
28	0x3d5f3d22	0.05450166
29	0x3d49a2a3	0.049227368
30	0x3cfcf5af	0.03087887
31	0xbd4274bb	-0.047474604
32	0xbd44c5a4	-0.048040047
33	0xbc70212e	-0.014656348
34	0x3bb7fddc	0.005614979
35	0xbc1b57a8	-0.009481348
36	0x3ce77607	0.028254522
37	0x3af3d06d	0.0018601544
38	0xbb5cb6ed	-0.0033678368
39	0x3cb919a8	0.022595242
40	0x3c6a8459	0.014313781
41	0x3d4c0f13	0.049819063
42	0x3d5f0512	0.054448195
43	0x3bb3f25a	0.005491537
44	0xbc220360	-0.0098885
45	0xbc099d5b	-0.008399333
46	0xbca5ad4c	-0.020224236
47	0x3d546a05	0.05185892
48	0x3c01f11e	0.007931022
49	0xbcd74aab	-0.026280722
50	0xbce85616	-0.028361361
51	0xbd2eb9cb	-0.042657655
52	0x3cb27e4b	0.021788737
53	0x3ccd0b80	0.025029898
54	0xbd23a7c8	-0.03995493
55	0xbc9ff28b	-0.019524833
56	0xbd0bdb47	-0.034144666
57	0x3d4a8406	0.049442314
58	0xbd3fdda7	-0.046842244
59	0x3cf8a2f9	0.030351149
60	0xbd13e7aa	-0.036109604
61	0x3d70553a	0.05867503
62	0x3bcc6015	0.00623704
63	0x3ce94594	0.02847556
64	0xbd06ccbe	-0.0329101
65	0x3cd9a3f3	0.026567435
66	0x3be1c34f	0.0068897377
67	0xbc76de03	-0.01506758
68	0x3cfa830f	0.030580072
69	0x3cd6d6be	0.026225444
70	0x3d0717a4	0.03298153
71	0xbd11f9f2	-0.035638757
72	0x3cf6de74	0.03013537
73	0xbc6d6c40	-0.014491141
74	0xbd545d50	-0.051846802
75	0x3c5ee3a9	0.013604083
76	0x3d6b2b69	0.057414446
77	0x3bb6664d	0.0055663944
78	0xbcec484a	-0.028843064
79	0xbcc09693	-0.0235093
80	0xbc37ae75	-0.011211027
81	0x3c87f77c	0.016597502
82	0x3ce4abc1	0.02791393
83	0x3d34fb3d	0.044184912
84	0x3ab237d2	0.0013596958
85	0xbcaf9ac2	-0.021436099
86	0xbc9dca7e	-0.019261595
87	0xbbfc0e26	-0.0076921163
88	0xbc2816ed	-0.010259372
89	0x3cc4fb18	0.024045512
90	0xbd011187	-0.031510856
91	0x3d0a8125	0.033814568
92	0xbcb7c5a4	-0.02243311
93	0x3c56d7d8	0.013112985
94	0xbca8bc53	-0.020597612
95	0x3ca13218	0.019677207
96	0xbcec5706	-0.02885009
97	0x3cad9b11	0.021192105
98	0x3d5e82ff	0.054324146
99	0xbbe5be67	-0.007011223
100	0x3c80ffab	0.015746912
101	0xbb818637	-0.0039527672
102	0x3c68608c	0.014183175
103	0xbc59fe09	-0.013305196
104	0x3cc97c02	0.024595264
105	0x3d0a1635	0.033712585
106	0x3cc0b5fa	0.023524273
107	0xbd220cdd	-0.03956305
108	0x3ca85f75	0.02055333
109	0x3cbdcdd9	0.023169445
110	0x3d2adc3e	0.041713946
111	0xbcb1d870	-0.02170965
112	0xbb83a7d5	-0.00401781
113	0x3a0c289a	0.0005346626
114	0xbcf0aed0	-0.029380232
115	0x3b6c88cb	0.0036092277
116	0x3d26ac4a	0.04069165
117	0x3c814546	0.015780102
118	0x3d292b22	0.0413009
119	0x3cab3d5b	0.02090328

fc2.weight f4 [85, 120]
0	0xbd1df1a7	-0.038560536
1	0x3cb97ace	0.022641566
2	0xbde15621	-0.11002756
3	0xbe2f1da7	-0.17101155
4	0x3cf299f3	0.029614424
5	0xbb72f21f	-0.0037070585
6	0x3cb198dc	0.021679334
7	0xbda3a8aa	-0.079911545
8	0x3ddd565e	0.10807489
9	0x3d4eb1eb	0.050462645
10	0xbd8a4a25	-0.06752423
11	0x3d977b35	0.07396547
12	0x3db04835	0.086075224
13	0x3d8a3217	0.06747835
14	0xbcda06fd	-0.02661466
15	0xbda341a4	-0.07971504
16	0x3d7e92fa	0.062151887
17	0x3d2a6b12	0.041606016
18	0x3ca44a79	0.020055043
19	0xbd3316ef	-0.043723043
20	0x3d895685	0.067059554
21	0xbd8ce37d	-0.068793274
22	0xbda5bc1b	-0.08092519
23	0x3d31cf91	0.04341084
24	0x3d9a64fa	0.07538791
25	0x3d974aef	0.07387339
26	0xbdc89a6b	-0.09795078
27	0xbdb2ea6e	-0.0873612
28	0xbae5ed0a	-0.0017541957
29	0xbd9fd9bb	-0.07805201
30	0xbdb23ac2	-0.087026134
31	0xbbfe2ae2	-0.007756577
32	0xbd6151cc	-0.05500965
33	0x3d50efca	0.05100993
34	0x3df8d789	0.12150485
35	0x3c33a7c6	0.010965293
36	0xbd966cb3	-0.073449515
37	0xbd41fb3b	-0.047358733
38	0x3dc66d67	0.096888356
39	0xbd8f08d1	-0.069841035
40	0xbdaf4b3f	-0.08559274
41	0xbc1557fe	-0.009115217
42	0xbd6c1d2f	-0.05764502
43	0xbe106c86	-0.14103898
44	0x3cc84761	0.024448099
45	0x3d2b7160	0.04185617
46	0x3d89a1ce	0.06720315
47	0x3cd9d57f	0.02659106
48	0x3d97717a	0.07394691
49	0x3d18ce1d	0.03730594
50	0x3dd1b6ae	0.102399215
51	0xbdb72365	-0.08942298
52	0x3d81f1f9	0.06344981
53	0x3dcfac3b	0.10140272
54	0xbd9a7345	-0.07541517
55	0xbdb7c2ba	-0.08972688
56	0xbd93a4f9	-0.072092004
57	0xbdd3e358	-0.10346097
58	0x3db3a4e4	0.08771685
59	0x3def63c7	0.11688953
60	0x3bd14dd0	0.00638745
61	0x3df078ac	0.11741766
62	0xbcf9dfe1	-0.030502262
63	0x3cd9b134	0.026573755
64	0xbb5ac423	-0.0033381067
65	0x3d5a2c3a	0.053264834
66	0xbdbe0e52	-0.09280075
67	0x3a8e45da	0.0010854558
68	0xbc7ef8f5	-0.015562286
69	0x3e35cd89	0.17754187
70	0x3dd40f42	0.10354473
71	0xbda803fe	-0.082038864
72	0xbb191900	-0.0023360848
73	0x3d6738ba	0.056450583
74	0x3da1f67c	0.07908341
75	0xbd0fa751	-0.035071675
76	0x3d6e18bf	0.05812907
77	0x3c6d27eb	0.014474849
78	0xbccef912	-0.02526525
79	0xbdefeb2a	-0.11714776
80	0x3d3f5d8d	0.046720076
81	0x3d99eb26	0.07515554
82	0x3d7b2768	0.061316878
83	0xbd122410	-0.035678923
84	0x3d614e06	0.05500605
85	0xbd2ea8e5	-0.04264154
86	0x3e2f9a8d	0.171488
87	0x3d2be915	0.04197033
88	0x3db42fda	0.087981895
89	0x3cedeead	0.029044474
90	0xbcf39d5c	-0.02973812
91	0x3e2f382e	0.17111275
92	0xbd816804	-0.063186675
93	0xbc957d35	-0.01824818
94	0xbbbdfe09	-0.0057981056
95	0xbd7f3919	-0.062310312
96	0x3d94e958	0.07271069
97	0xbdbabe0e	-0.09118281
98	0x3d792d7f	0.060834404
99	0x3c8f35a9	0.017481642
100	0x3d1d2fa6	0.03837552
101	0x3d8d55ee	0.069011554
102	0x3d8adda6	0.06780557
103	0xbd4d7cff	-0.050168034
104	0xbd1b365e	-0.037893645
105	0x3cdd1456	0.026987236
106	0xbdb8d6fe	-0.090253815
107	0x3d364dc1	0.044507746
108	0x3ba17629	0.004927416
109	0x3d83f2d6	0.06442802
110	0x3d874a25	0.06605939
111	0xbd0e78bc	-0.03478311
112	0x3dc98645	0.09840063
113	0x3d940b2f	0.072286956
114	0x3d3108d9	0.04322133
115	0x3d5fc785	0.054633636
116	0x3dedde71	0.11614693
117	0xbd9a5fe5	-0.07537822
118	0xbd085610	-0.0332852
119	0x3dcaa300	0.09894371
120	0x3cab4671	0.020907613
121	0x3d8574ad	0.06516395
122	0xbd573061	-0.052536372
123	0xbdad88e0	-0.084733725
124	0x3d564e4b	0.05232076
125	0x3d860e9a	0.06545754
126	0xbdbac35a	-0.091192916
127	0xbcd2a27d	-0.025712246
128	0x3bc92d6e	0.006139449
129	0xbd2d96e5	-0.042380232
130	0xbd8de3e0	-0.06928229
131	0x3b795f19	0.0038051067
132	0x3c742b0d	0.014902842
133	0xbd95578a	-0.072920874
134	0xbd81c439	-0.063362546
135	0x3d6fdf17	0.058562364
136	0x3d303488	0.043018848
137	0xbcb305f1	-0.021853419
138	0x3d674054	0.056457832
139	0x3db6830b	0.08911713
140	0x3d9fa771	0.07795609
141	0xbd12829d	-0.035769094
142	0xbd87a2da	-0.06622858
143	0x3d82ff1a	0.06396313
144	0xbceb2ab4	-0.028706886
145	0x3c967d28	0.018370226
146	0xbdbe76ce	-0.09300004
147	0x3d9aeffc	0.07565305
148	0xbd82d321	-0.06387926
149	0xbca77f79	-0.020446526
150	0x3c9c4b05	0.01907874
151	0x3c21b2dc	0.009869304
152	0x3da54042	0.08068897
153	0x3d54ec72	0.051983304
154	0xbcbdb22a	-0.023156244
155	0xbd9c692e	-0.07637249
156	0xbb416408	-0.0029509086
157	0x3dab0400	0.08350372
158	0x3c43071d	0.011903551
159	0xbcdea57d	-0.02717852
160	0x3d483215	0.048875887
161	0xbd8f9dfd	-0.07012556
162	0xbdb7477a	-0.0894918
163	0xbc4f8741	-0.012666524
164	0xbdb01593	-0.08597865
165	0x3db101ec	0.08642945
166	0x3daacff7	0.083404474
167	0xbd818e5f	-0.06325983
168	0x3ccf77cb	0.025325676
169	0xbce6367b	-0.02810215
170	0x3d125a55	0.03573068
171	0xbd69da89	-0.057093177
172	0x3cf3dc1f	0.029768048
173	0x3d6e5807	0.05818942
174	0xbd94ea06	-0.07271199
175	0x3d9ac543	0.07557156
176	0xbd867af3	-0.065664195
177	0x3d44378e	0.047904544
178	0xbd64db19	-0.05587301
179	0x3d60df0e	0.05490022
180	0xbc5adc52	-0.0133581925
181	0xbdccc99b	-0.09999391
182	0x3b54eaad	0.003248851
183	0x3d97ca43	0.07411625
184	0x3be079c2	0.006850452
185	0xbd6a0d61	-0.057141665
186	0xbcf43732	-0.029811475
187	0x3d0112cb	0.031512063
188	0x3d8389c4	0.06422761
189	0x3d41daf4	0.04732795
190	0xbc9cb4f9	-0.019129263
191	0xbd14a13a	-0.03628657
192	0xbdb3b0b3	-0.08773937
193	0xbcb4cbbd	-0.022069806
194	0x3da960ec	0.082704395
195	0x3db30889	0.08741862
196	0xbd86ecbb	-0.065881215
197	0x3d6b119a	0.057389833
198	0x3d8e6f93	0.06954875
199	0xbd9b2c1f	-0.07576775
200	0x3c9e7916	0.019344848
201	0x3d9392b1	0.072057135
202	0x3d474479	0.048649285
203	0x3d3ad96a	0.0456175
204	0x3c053c22	0.008132013
205	0x3d8e31f0	0.069431186
206	0xbd8bdcb1	-0.06829203
207	0x3d32b293	0.043627333
208	0xbc71e886	-0.014764911
209	0xbd5561f2	-0.05209536
210	0xbdaa391d	-0.08311675
211	0x3d89411a	0.0670187
212	0xbdbee4bb	-0.093209706
213	0xbd56806f	-0.052368578
214	0x3d72bf7b	0.05926464
215	0x3d4660e5	0.04843225
216	0x3d65d3d5	0.056110222
217	0x3cc8a3df	0.024492202
218	0x3c5546cb	0.013017367
219	0x3cc102dc	0.023560934
220	0xbd8f507c	-0.06997773
221	0xbbeb9b11	-0.007190116
222	0xbd913b82	-0.07091428
223	0x3d6396b2	0.055563636
224	0x3d1d7e97	0.038450804
225	0x3cc0489b	0.023472121
226	0xbd867ca2	-0.065667406
227	0xbd950d1b	-0.0727789
228	0xbda7b18b	-0.081881605
229	0x3d8080ff	0.06274604
230	0x3c8531cf	0.016259102
231	0xbd49287b	-0.04911087
232	0xbdbf650e	-0.093454465
233	0x3d86fe48	0.06591469
234	0xbd2ad5f6	-0.041707955
235	0xbd80e603	-0.06293871
236	0xbd191a03	-0.037378322
237	0x3d054127	0.032532837
238	0x3d6f2eb0	0.058394134
239	0x3c85e155	0.016342798
240	0xbbdd1b7b	-0.0067476607
241	0x3d0f1699	0.03493366
242	0xbd8fd146	-0.070223376
243	0xbcf751a8	-0.030190304
244	0x3dcdd493	0.10050311
245	0x3d1195f2	0.03554339
246	0xbda6f0b1	-0.08151377
247	0xbd1d820c	-0.0384541
248	0xbcd62d03	-0.02614451
249	0xbdcea690	-0.10090363
250	0xbcda1844	-0.026622899
251	0xbc6854a6	-0.014180338
252	0xbd6d98a8	-0.058006912
253	0x3c76c2f2	0.015061127
254	0xbd63ad07	-0.055584934
255	0x3db10e13	0.086452626

fc2.bias f4 [85]
0	0xbcd82083	-0.02638269
1	0xbdc2859f	-0.094981425
2	0xbc12a029	-0.008949318
3	0xbcb1faad	-0.021725977
4	0x3d3dbc30	0.046322048
5	0xbca49c26	-0.020093989
6	0x3d8acf90	0.06777871
7	0x3bc1efaa	0.0059184628
8	0x3c846d4b	0.016165396
9	0x3ccb9148	0.024849549
10	0x3d889735	0.066694655
11	0xbcc61081	-0.024177792
12	0x3e007467	0.12544404
13	0x3d0f71ee	0.03502076
14	0x3d12519f	0.03572237
15	0xbbc7dd40	-0.006099373
16	0xbc94318d	-0.018090034
17	0x3ccc63e4	0.024949975
18	0x3dceb4b0	0.10093057
19	0x3d9d1db5	0.07671682
20	0xbd1faf38	-0.03898546
21	0xbda6e89b	-0.08149835
22	0xbd579e48	-0.052641183
23	0xbdadf96e	-0.084948406
24	0xbda43efc	-0.08019826
25	0xbce2b9d2	-0.027676497
26	0x3d4320e2	0.04763878
27	0x3d420494	0.047367647
28	0x3d0efa28	0.034906536
29	0xbda48de5	-0.08034877
30	0xbd8abcef	-0.067743175
31	0xbd78625e	-0.060640685
32	0xbd1acf5b	-0.037795406
33	0xbdba1433	-0.09085884
34	0x3d62bb5b	0.055354457
35	0xbd1a701f	-0.037704583
36	0xbda9db40	-0.08293772
37	0x3da8217c	0.08209512
38	0xbcf9cf58	-0.030494377
39	0x3ddd7a41	0.10814334
40	0x3d21044e	0.039310746
41	0xbd4d90b9	-0.050186846
42	0x3c6ad8f5	0.014333953
43	0x3d5b2588	0.05350259
44	0xbd648a8e	-0.0557962
45	0xbcb80504	-0.02246333
46	0x3ae6339e	0.001756299
47	0x3db40243	0.08789494
48	0xbd20e7c4	-0.03928353
49	0x3da072c1	0.078343876
50	0xbd408b52	-0.047007866
51	0xbb8fa5eb	-0.0043837926
52	0x3d6d27fe	0.057899468
53	0xbda23d5c	-0.079218596
54	0x3d9ab9bc	0.07554957
55	0xbd9c1c1e	-0.076225504
56	0x3dc15f33	0.09441986
57	0x3dcd3aa0	0.100209475
58	0xbd9a53cf	-0.075355165
59	0xbca643f7	-0.02029608
60	0xbc82055a	-0.015871692
61	0x3da64e54	0.08120409
62	0x3d93b7ea	0.07212813
63	0x3cf9d40d	0.030496622
64	0xbc945c8b	-0.018110534
65	0x3d5f8b17	0.054576006
66	0x3ddbc3d3	0.1073071
67	0xbd95f811	-0.073227055
68	0x3c85ce97	0.016333861
69	0x3dbdee08	0.092739165
70	0x3dbf71e9	0.093478985
71	0xbc24b24e	-0.010052277
72	0xbd327050	-0.04356414
73	0x3d183fc6	0.037170194
74	0x3c14061e	0.009034662
75	0xbcba7f49	-0.022765772
76	0x3df074a0	0.117409945
77	0x3856fbfb	5.125625e-05
78	0xbd71a3ee	-0.058994226
79	0x3dbfa4eb	0.093576275
80	0xbceb5a32	-0.028729532
81	0xbc81acc0	-0.015829444
82	0xbd156b24	-0.03647913
83	0x3dc3713f	0.09543084
84	0x3d76f7fc	0.06029509

fc3.weight f4 [10, 85]
0	0xbd5bc7f2	-0.05365748
1	0x3dd40ed6	0.10354392
2	0xbdc6fb26	-0.097158715
3	0x3daa156a	0.08304866
4	0x3c2bfe7b	0.010497685
5	0xbb581cd3	-0.0032976165
6	0x3e076dcf	0.13225482
7	0xbdcd3763	-0.1002033
8	0xbe4dbc25	-0.20091303
9	0xbd1478b6	-0.03624793
10	0x3ccf85df	0.02533239
11	0x3dc9a7ca	0.09846456
12	0xbe8347e9	-0.256408
13	0xbd5d9c4f	-0.054104146
14	0x3d1c7133	0.038193893
15	0x3cceacf6	0.025228959
16	0xbd909644	-0.07059911
17	0x3e2989e2	0.16556504
18	0xbe2c92a2	-0.16852811
19	0xbda65494	-0.08121601
20	0xbe2d5481	-0.16926767
21	0xbd3a7ac7	-0.045527246
22	0x3da1671e	0.07880996
23	0x3c596ead	0.013271016
24	0xbe14b6ba	-0.1452283
25	0x3d5b1ea9	0.053496037
26	0xbd8099a0	-0.06279302
27	0xbd27edf0	-0.0409984
28	0x3dfc5eab	0.12322744
29	0xbd2010b2	-0.039078422
30	0x3db6e070	0.08929527
31	0xbcf6f102	-0.030144218
32	0xbda0f000	-0.07858276
33	0x3d52fd99	0.05151138
34	0x3d25fb05	0.040522594
35	0xbdaf8879	-0.08570952
36	0x3c959727	0.018260552
37	0x3e8a76fb	0.270439
38	0x3c103ec1	0.008804024
39	0xbdf6c90e	-0.12050067
40	0xbdc9cfcb	-0.098540865
41	0xbd8cb05e	-0.06869577
42	0x3ccf6baa	0.025319893
43	0x3db5cfe1	0.088775404
44	0x3dc57b11	0.09642614
45	0xbd690ded	-0.056898046
46	0xbe07860b	-0.13234727
47	0xbd2034d7	-0.039112892
48	0x3d85202c	0.06500277
49	0x3dc5ad4e	0.09652196
50	0xbda77cb3	-0.08178081
51	0xbe7122f9	-0.23548497
52	0x3e06dbfc	0.13169855
53	0xbdabf2d5	-0.08395926
54	0x3dbacf6f	0.09121596
55	0x3d9ba9bf	0.07600736
56	0x3d5e71e6	0.05430784
57	0xbe0a9e66	-0.13536987
58	0x3d593b9e	0.05303537
59	0x3c71b0bd	0.01475161
60	0xbda0620a	-0.078311995
61	0xbdec7203	-0.115451835
62	0x3e298ded	0.16558047
63	0xbdf1d45f	-0.11808085
64	0x3d07a096	0.03311213
65	0x3e25bd70	0.16185546
66	0xbb422795	-0.0029625644
67	0x3df57139	0.11984486
68	0x3de923a2	0.113837495
69	0xbe0366cc	-0.12832183
70	0x3e179019	0.14801063
71	0xbde2c0e9	-0.11071951
72	0x3b2dc994	0.0026517855
73	0xbe298999	-0.16556396
74	0x3e70823d	0.23487182
75	0x3e4167fe	0.18887326
76	0xbe53168b	-0.20614068
77	0x3e5a7610	0.213341
78	0x3d3f9bf5	0.04677959
79	0x3e0cccfc	0.1375007
80	0xbddd7514	-0.108133465
81	0xbe12cc2f	-0.14335702
82	0x3e33a235	0.17542346
83	0x3d485292	0.04890687
84	0xbe0631f2	-0.1310499
85	0x3e5a4d0d	0.21318455
86	0xbdcc6e44	-0.09981969
87	0xbdeb3415	-0.11484543
88	0xbe6d7da3	-0.23192458
89	0x3c5b8385	0.013398056
90	0xbe21c638	-0.1579827
91	0xbdffd664	-0.12492064
92	0x3dad9cf0	0.08477199
93	0x3e2f6a4a	0.1713039
94	0xbe08fe2f	-0.13378213
95	0xbdee53c8	-0.11637074
96	0x3d8cc95c	0.06874344
97	0x3e00d8bd	0.12582679
98	0x3dc12f41	0.09432841
99	0x3d9ab1d6	0.07553451
100	0xbddbf514	-0.10740104
101	0xbe380c2e	-0.17973396
102	0xbe5929d9	-0.2120737
103	0x3e62baea	0.22141615
104	0x3d8067ff	0.06269836
105	0xbde3a7cf	-0.11115991
106	0x3c0068ea	0.007837513
107	0x3d7192f4	0.058978036
108	0xbdcaf93b	-0.09910818
109	0xbdeaf38b	-0.114722334
110	0xbbb98824	-0.005661981
111	0xbdabc653	-0.08387437
112	0x3daa8174	0.083254725
113	0xbce3e362	-0.027818386
114	0x3da302a0	0.07959485
115	0xbdc2e860	-0.09516978
116	0x3c154197	0.009109876
117	0xbd9ff485	-0.0781031
118	0x3ca9d9fa	0.020733822
119	0x3c5e6152	0.013573008
120	0x3c4dff2f	0.012573048
121	0x3da6cdaf	0.081447
122	0x3e22cd5b	0.1589865
123	0x3c6ad108	0.0143320635
124	0x3e6a8efe	0.2290611
125	0x3d8efb1f	0.06981491
126	0x3da03f7c	0.07824609
127	0xbd339c3f	-0.04385018
128	0x3c9c9af8	0.019116864
129	0xbd0f1377	-0.034930672
130	0x3e399169	0.18121876
131	0xbdb2f0e1	-0.0873735
132	0x3d8c5bc8	0.068534434
133	0x3d2a95ea	0.041646875
134	0xbd574fc8	-0.05256632
135	0xbd3d6a7d	-0.046244133
136	0xbde8d682	-0.11369039
137	0x3d542501	0.051793102
138	0x3e1ddfa5	0.15417345
139	0x3e53d46c	0.20686501
140	0x3bef333d	0.0072998093
141	0x3d3ca159	0.04605231
142	0x3e4517ca	0.19247356
143	0xbd3a4934	-0.04547997
144	0xbd4c16c5	-0.049826402
145	0x3d1d932d	0.038470436
146	0x3d1b3e88	0.03790143
147	0x3c33f04c	0.010982584
148	0xbdd75c7c	-0.10515687
149	0xbe1bbcfd	-0.15208812
150	0xbdeade60	-0.11468196
151	0x3e9405b9	0.28910616
152	0xbda8885e	-0.08229135
153	0xbe37a67c	-0.17934602
154	0xbdb1c6c9	-0.086804934
155	0xbe098e63	-0.13433222
156	0xbd8c899e	-0.06862186
157	0x3dccdcfb	0.10003086
158	0x3e480237	0.19532095
159	0xbe3fa52b	-0.1871535
160	0xbe9c5c77	-0.30539295
161	0x3e182881	0.14859201
162	0xbdb44bc1	-0.088035114
163	0xbe0550c9	-0.13019098
164	0xbe29d60f	-0.16585563
165	0xbd7cb5c2	-0.061696775
166	0x3df6e393	0.12055125
167	0x3df36bb9	0.11885781
168	0x3deabb2a	0.1146148
169	0xbe706f47	-0.23479949
170	0x3e31e13e	0.1737108
171	0x3c929b62	0.017896358
172	0xbd689427	-0.056781914
173	0xbda3f30f	-0.08005344
174	0xbd5cb123	-0.05387987
175	0xbdc7e55f	-0.09760546
176	0xbc6e7796	-0.014554879
177	0x3d701490	0.05861336
178	0x3e4107d9	0.1885065
179	0x3d723ab4	0.059138015
180	0x3c8059f0	0.015667886
181	0x3d8d5432	0.069008246
182	0x3e48ce58	0.19609964
183	0xbcd01cb4	-0.025404312
184	0xbe907601	-0.2821503
185	0x3bce6f2d	0.0062998743
186	0xbd66752e	-0.056264095
187	0x3b1a48fd	0.002354204
188	0xbdf4f2d5	-0.11960379
189	0x3da76e82	0.081753746
190	0xbc09a150	-0.008400276
191	0x3dd688b6	0.10475294
192	0x3dd4d1a2	0.10391547
193	0x39e2b35d	0.00043239715
194	0xbe04f80b	-0.12985246
195	0x3d01c1c6	0.031678937
196	0xbe73f534	-0.23824006
197	0xbe59874f	-0.21243022
198	0xbdbfd005	-0.093658485
199	0x3d3a079c	0.045417413
200	0xbd9b99a4	-0.07597664
201	0xbdd1e1d2	-0.1024815
202	0x3cad76c9	0.021174805
203	0xbd9623ee	-0.07331072
204	0xbe90664c	-0.28203046
205	0x3e00b401	0.12568666
206	0x3d054a10	0.032541335
207	0x3e1a35cc	0.15059584
208	0xbd43b9b0	-0.047784507
209	0xbe37b8ab	-0.17941539
210	0xbda85927	-0.082201295
211	0xbd4113fe	-0.047138207
212	0xbe697f95	-0.22802575
213	0x3e81c9a1	0.25349143
214	0xbdc42c16	-0.09578721
215	0x3d38bb66	0.045100592
216	0x3e432f5a	0.19061032
217	0x3e32220b	0.17395799
218	0x3d1834c4	0.037159696
219	0x3d2f425d	0.0427879
220	0xbd1b9ee9	-0.037993345
221	0x3e15f35c	0.14643615
222	0xbe5c8810	-0.21536279
223	0x3d4ca0d4	0.049958065
224	0x3dce7357	0.10080593
225	0x3da7acfa	0.081872895
226	0xbe10ea96	-0.14151987
227	0xbdbc5940	-0.091967106
228	0x3e433db7	0.19066511
229	0xbb515dae	-0.0031946707
230	0xbdd0f4ef	-0.102029674
231	0x3e14db45	0.1453677
232	0x3d0d441a	0.034488775
233	0xbe1414fb	-0.14461128
234	0xbd37154f	-0.044698056
235	0x3e592f61	0.2120948
236	0xbdac2e7e	-0.08407305
237	0x3ddbccb8	0.107324064
238	0x3d9692f6	0.07352249
239	0x3dd9f35b	0.106421195
240	0xbe14a3f5	-0.1451567
241	0x3da0151e	0.07816528
242	0x3d03cb38	0.032176226
243	0x3d3d0c24	0.046154156
244	0x3e49929a	0.1968483
245	0x3df7f0a5	0.12106446
246	0xbbf5c065	-0.007499742
247	0x3df89fc7	0.1213985
248	0xbdfeb88f	-0.124375455
249	0x3d9e71e2	0.07736565
250	0x3d158782	0.036506183
251	0x3c98770f	0.018611459
252	0xbe023a70	-0.12717605
253	0xbe03e797	-0.12881313
254	0xbdb59652	-0.08866562
255	0xbd26c648	-0.04071644

fc3.bias f4 [10]
0	0xbb816cdf	-0.003949746
1	0x3dfb329d	0.12265513
2	0x3d605465	0.054767985
3	0x3d2d59ef	0.042322095
4	0xbdb17794	-0.08665386
5	0xbd990ee8	-0.07473546
6	0xbcc1cd38	-0.023657426
7	0x3d8c7961	0.06859089
8	0xbc14223b	-0.009041364
9	0xbd68d596	-0.056844316
